…
            "text/plain": ""
          }
        }
      ],
      "console": []
    },
    {
      "id": "Hbol",
      "code_hash": "1d0db38904205bec4d6f6f6a1f6cec3e",
      "outputs": [
        {
          "type": "data",
          "data": {
            "text/plain": ""
          }
        }
      ],
      "console": []
    },
    {
      "id": "MJUe",
      "code_hash": "3c6dc6e44a9896055ae074788df8cdc0",
      "outputs": [
        {
          "type": "data",
          "data": {
            "text/html": "<pre style='font-size: 12px'>PointNetPP(\n  (sa1): PointNetSetAbstraction(\n    (mlp): Sequential(\n      (0): Conv1d(8, 64, kernel_size=(1,), stride=(1,))\n      (1): BatchNorm1d(64, eps=1e-05, momentum=0.1, affine=True, track_running_stats=True)\n      (2): ReLU()\n      (3): Conv1d(64, 64, kernel_size=(1,), stride=(1,))\n      (4): BatchNorm1d(64, eps=1e-05, momentum=0.1, affine=True, track_running_stats=True)\n      (5): ReLU()\n      (6): Conv1d(64, 128, kernel_size=(1,), stride=(1,))\n      (7): BatchNorm1d(128, eps=1e-05, momentum=0.1, affine=True, track_running_stats=True)\n      (8): ReLU()\n    )\n  )\n  (sa2): PointNetSetAbstraction(\n    (mlp): Sequential(\n      (0): Conv1d(132, 128, kernel_size=(1,), stride=(1,))\n      (1): BatchNorm1d(128, eps=1e-05, momentum=0.1, affine=True, track_running_stats=True)\n      (2): ReLU()\n      (3): Conv1d(128, 128, kernel_size=(1,), stride=(1,))\n      (4): BatchNorm1d(128, eps=1e-05, momentum=0.1, affine=True, track_running_stats=True)\n      (5): ReLU()\n      (6): Conv1d(128, 256, kernel_size=(1,), stride=(1,))\n      (7): BatchNorm1d(256, eps=1e-05, momentum=0.1, affine=True, track_running_stats=True)\n      (8): ReLU()\n    )\n  )\n  (sa3): PointNetSetAbstraction(\n    (mlp): Sequential(\n      (0): Conv1d(256, 256, kernel_size=(1,), stride=(1,))\n      (1): BatchNorm1d(256, eps=1e-05, momentum=0.1, affine=True, track_running_stats=True)\n      (2): ReLU()\n      (3): Conv1d(256, 512, kernel_size=(1,), stride=(1,))\n      (4): BatchNorm1d(512, eps=1e-05, momentum=0.1, affine=True, track_running_stats=True)\n      (5): ReLU()\n      (6): Conv1d(512, 1024, kernel_size=(1,), stride=(1,))\n      (7): BatchNorm1d(1024, eps=1e-05, momentum=0.1, affine=True, track_running_stats=True)\n      (8): ReLU()\n    )\n  )\n  (classifier): Sequential(\n    (0): Linear(in_features=1024, out_features=512, bias=True)\n    (1): BatchNorm1d(512, eps=1e-05, momentum=0.1, affine=True, track_running_stats=True)\n    (2): ReLU()\n    (3): Dropout(p=0.2, inplace=False)\n    (4): Linear(in_features=512, out_features=256, bias=True)\n    (5): BatchNorm1d(256, eps=1e-05, momentum=0.1, affine=True, track_running_stats=True)\n    (6): ReLU()\n    (7): Dropout(p=0.2, inplace=False)\n    (8): Linear(in_features=256, out_features=2, bias=True)\n  )\n)</pre>"
          }
        }
      ],
      "console": []
    },
    {
      "id": "vblA",
      "code_hash": "363bd7348e813b97e91d06c9f152a509",
      "outputs": [
        {
          "type": "data",
          "data": {
            "text/plain": ""
          }
        }
      ],
      "console": [
        {
          "type": "stream",
          "name": "stdout",
…
