…
            "text/plain": ""
          }
        }
      ],
      "console": []
    },
    {
      "id": "Hbol",
      "code_hash": "55c74fade993062fe8543c19ae3a0f13",
      "outputs": [
        {
          "type": "data",
          "data": {
            "text/plain": ""
          }
        }
      ],
      "console": []
    },
    {
      "id": "MJUe",
      "code_hash": "d82881b18403da2137f4d9d11585f357",
      "outputs": [
        {
          "type": "data",
          "data": {
            "text/html": "<pre style='font-size: 12px'>PointNetPP(\n  (sa1): PointNetSetAbstraction(\n    (mlp): Sequential(\n      (0): Conv1d(7, 64, kernel_size=(1,), stride=(1,))\n      (1): BatchNorm1d(64, eps=1e-05, momentum=0.1, affine=True, track_running_stats=True)\n      (2): ReLU()\n      (3): Conv1d(64, 64, kernel_size=(1,), stride=(1,))\n      (4): BatchNorm1d(64, eps=1e-05, momentum=0.1, affine=True, track_running_stats=True)\n      (5): ReLU()\n      (6): Conv1d(64, 128, kernel_size=(1,), stride=(1,))\n      (7): BatchNorm1d(128, eps=1e-05, momentum=0.1, affine=True, track_running_stats=True)\n      (8): ReLU()\n    )\n  )\n  (sa2): PointNetSetAbstraction(\n    (mlp): Sequential(\n      (0): Conv1d(131, 128, kernel_size=(1,), stride=(1,))\n      (1): BatchNorm1d(128, eps=1e-05, momentum=0.1, affine=True, track_running_stats=True)\n      (2): ReLU()\n      (3): Conv1d(128, 128, kernel_size=(1,), stride=(1,))\n      (4): BatchNorm1d(128, eps=1e-05, momentum=0.1, affine=True, track_running_stats=True)\n      (5): ReLU()\n      (6): Conv1d(128, 256, kernel_size=(1,), stride=(1,))\n      (7): BatchNorm1d(256, eps=1e-05, momentum=0.1, affine=True, track_running_stats=True)\n      (8): ReLU()\n    )\n  )\n  (sa3): PointNetSetAbstraction(\n    (mlp): Sequential(\n      (0): Conv1d(256, 256, kernel_size=(1,), stride=(1,))\n      (1): BatchNorm1d(256, eps=1e-05, momentum=0.1, affine=True, track_running_stats=True)\n      (2): ReLU()\n      (3): Conv1d(256, 512, kernel_size=(1,), stride=(1,))\n      (4): BatchNorm1d(512, eps=1e-05, momentum=0.1, affine=True, track_running_stats=True)\n      (5): ReLU()\n      (6): Conv1d(512, 1024, kernel_size=(1,), stride=(1,))\n      (7): BatchNorm1d(1024, eps=1e-05, momentum=0.1, affine=True, track_running_stats=True)\n      (8): ReLU()\n    )\n  )\n  (classifier): Sequential(\n    (0): Linear(in_features=1024, out_features=512, bias=True)\n    (1): BatchNorm1d(512, eps=1e-05, momentum=0.1, affine=True, track_running_stats=True)\n    (2): ReLU()\n    (3): Dropout(p=0.4, inplace=False)\n    (4): Linear(in_features=512, out_features=256, bias=True)\n    (5): BatchNorm1d(256, eps=1e-05, momentum=0.1, affine=True, track_running_stats=True)\n    (6): ReLU()\n    (7): Dropout(p=0.4, inplace=False)\n    (8): Linear(in_features=256, out_features=2, bias=True)\n  )\n)</pre>"
          }
        }
      ],
      "console": []
    },
    {
      "id": "vblA",
      "code_hash": "277f199fd8c3dbeabdcdc72b156e3d93",
      "outputs": [
        {
          "type": "data",
          "data": {
            "text/plain": ""
          }
        }
      ],
      "console": [
        {
          "type": "stream",
          "name": "stdout",
…
